…
Tue 14 Oct 2025 18:38:27 INFO 
====Testing====
sports
The number of users: 35598
Average actions of users: 1.1244732850160122
The number of items: 13738
Average actions of items: 2.9137429028970736
The number of inters: 40029
The sparsity of the dataset: 99.99181486908563%
Tue 14 Oct 2025 18:38:30 INFO 

=================================


Tue 14 Oct 2025 18:38:30 INFO =========1/20: Parameters:['cl_loss', 'cl_loss2', 'alpha', 'beta', 'top_k', 'PI_loss', 'relabel_rate', 'knn_i', 'seed']=(0.01, 0.01, 1, 1, 25, 0.1, 0.03, 5, 999)=======
Tue 14 Oct 2025 18:39:04 INFO LoCroMI(
  (image_embedding): Embedding(18357, 4096)
  (text_embedding): Embedding(18357, 384)
  (user_embedding): Embedding(35598, 64)
  (item_embedding): Embedding(18357, 64)
  (image_trs): Linear(in_features=4096, out_features=64, bias=True)
  (text_trs): Linear(in_features=384, out_features=64, bias=True)
  (softmax): Softmax(dim=-1)
  (attention): Sequential(
    (0): Linear(in_features=64, out_features=64, bias=True)
    (1): Tanh()
    (2): Linear(in_features=64, out_features=1, bias=False)
  )
  (map_v): Sequential(
    (0): Linear(in_features=64, out_features=64, bias=True)
    (1): Sigmoid()
  )
  (map_t): Sequential(
    (0): Linear(in_features=64, out_features=64, bias=True)
    (1): Sigmoid()
  )
)
Trainable parameters: 85991872
Tue 14 Oct 2025 18:39:09 INFO epoch 0 training [time: 4.3137s, train loss: 94.6975]
Tue 14 Oct 2025 18:39:09 INFO set zero numbers: 0, F1: 0.00901655334003701
Tue 14 Oct 2025 18:39:17 INFO epoch 0 evaluating [time: 4.1767s, valid_score: 0.101300]
Tue 14 Oct 2025 18:39:17 INFO valid result: 
…
