…
Tue 14 Oct 2025 15:02:48 INFO 
====Testing====
baby
The number of users: 19445
Average actions of users: 1.1150424273592183
The number of items: 5549
Average actions of items: 3.907370697422959
The number of inters: 21682
The sparsity of the dataset: 99.97990552482683%
Tue 14 Oct 2025 15:02:50 INFO 

=================================


Tue 14 Oct 2025 15:02:50 INFO =========1/20: Parameters:['cl_loss', 'cl_loss2', 'alpha', 'beta', 'top_k', 'PI_loss', 'relabel_rate', 'knn_i', 'seed']=(0.01, 0.01, 1, 1, 25, 0.1, 0.03, 5, 999)=======
Tue 14 Oct 2025 15:03:00 INFO LoCroMI(
  (image_embedding): Embedding(7050, 4096)
  (text_embedding): Embedding(7050, 384)
  (user_embedding): Embedding(19445, 64)
  (item_embedding): Embedding(7050, 64)
  (image_trs): Linear(in_features=4096, out_features=64, bias=True)
  (text_trs): Linear(in_features=384, out_features=64, bias=True)
  (softmax): Softmax(dim=-1)
  (attention): Sequential(
    (0): Linear(in_features=64, out_features=64, bias=True)
    (1): Tanh()
    (2): Linear(in_features=64, out_features=1, bias=False)
  )
  (map_v): Sequential(
    (0): Linear(in_features=64, out_features=64, bias=True)
    (1): Sigmoid()
  )
  (map_t): Sequential(
    (0): Linear(in_features=64, out_features=64, bias=True)
    (1): Sigmoid()
  )
)
Trainable parameters: 33579072
Tue 14 Oct 2025 15:03:03 INFO epoch 0 training [time: 1.9634s, train loss: 52.2785]
Tue 14 Oct 2025 15:03:03 INFO set zero numbers: 0, F1: 0.008095775670832313
Tue 14 Oct 2025 15:03:07 INFO epoch 0 evaluating [time: 2.2415s, valid_score: 0.063700]
Tue 14 Oct 2025 15:03:07 INFO valid result: 
…
