…
Wed 15 Oct 2025 14:07:56 INFO 
====Testing====
clothing
The number of users: 39387
Average actions of users: 1.0457511361616778
The number of items: 16803
Average actions of items: 2.451288460393977
The number of inters: 41189
The sparsity of the dataset: 99.99377640221293%
Wed 15 Oct 2025 14:08:00 INFO 

=================================


Wed 15 Oct 2025 14:08:00 INFO =========1/20: Parameters:['cl_loss', 'cl_loss2', 'alpha', 'beta', 'top_k', 'PI_loss', 'relabel_rate', 'knn_i', 'seed']=(0.01, 0.001, 1, 1, 25, 0.1, 0.03, 5, 999)=======
Wed 15 Oct 2025 14:08:44 INFO LoCroMI(
  (image_embedding): Embedding(23033, 4096)
  (text_embedding): Embedding(23033, 384)
  (user_embedding): Embedding(39387, 64)
  (item_embedding): Embedding(23033, 64)
  (image_trs): Linear(in_features=4096, out_features=64, bias=True)
  (text_trs): Linear(in_features=384, out_features=64, bias=True)
  (softmax): Softmax(dim=-1)
  (attention): Sequential(
    (0): Linear(in_features=64, out_features=64, bias=True)
    (1): Tanh()
    (2): Linear(in_features=64, out_features=1, bias=False)
  )
  (map_v): Sequential(
    (0): Linear(in_features=64, out_features=64, bias=True)
    (1): Sigmoid()
  )
  (map_t): Sequential(
    (0): Linear(in_features=64, out_features=64, bias=True)
    (1): Sigmoid()
  )
)
Trainable parameters: 107482112
Wed 15 Oct 2025 14:08:49 INFO epoch 0 training [time: 4.7041s, train loss: 75.3078]
Wed 15 Oct 2025 14:08:49 INFO set zero numbers: 0, F1: 0.006686019564315859
Wed 15 Oct 2025 14:08:59 INFO epoch 0 evaluating [time: 4.7321s, valid_score: 0.073000]
Wed 15 Oct 2025 14:08:59 INFO valid result: 
…
