…
The sparsity of the dataset: 99.99945737059952%
Wed 15 Oct 2025 11:05:00 INFO 
====Testing====
tools
The number of users: 842050
Average actions of users: 1.2058120064129207
The number of items: 213038
Average actions of items: 4.766069903021996
The number of inters: 1015354
The sparsity of the dataset: 99.99943399205475%
Wed 15 Oct 2025 11:08:22 INFO 

=================================


Wed 15 Oct 2025 11:08:22 INFO =========1/9: Parameters:['cl_loss', 'cl_loss2', 'alpha', 'beta', 'top_k', 'PI_loss', 'relabel_rate', 'knn_i', 'seed']=(0.01, 0.01, 1, 1, 25, 0.1, 0.03, 5, 999)=======
Wed 15 Oct 2025 11:08:37 INFO LoCroMI(
  (image_embedding): Embedding(274732, 768)
  (text_embedding): Embedding(274732, 768)
  (user_embedding): Embedding(842050, 64)
  (item_embedding): Embedding(274732, 64)
  (image_trs): Linear(in_features=768, out_features=64, bias=True)
  (text_trs): Linear(in_features=768, out_features=64, bias=True)
  (softmax): Softmax(dim=-1)
  (attention): Sequential(
    (0): Linear(in_features=64, out_features=64, bias=True)
    (1): Tanh()
    (2): Linear(in_features=64, out_features=1, bias=False)
  )
  (map_v): Sequential(
    (0): Linear(in_features=64, out_features=64, bias=True)
    (1): Sigmoid()
  )
  (map_t): Sequential(
    (0): Linear(in_features=64, out_features=64, bias=True)
    (1): Sigmoid()
  )
)
Trainable parameters: 493573376
Wed 15 Oct 2025 11:12:35 INFO epoch 0 training [time: 237.5031s, train loss: 460.9808]
Wed 15 Oct 2025 11:12:35 INFO set zero numbers: 0, F1: 0.0029462726800772933
Wed 15 Oct 2025 11:14:27 INFO epoch 0 evaluating [time: 56.3952s, valid_score: 0.027000]
Wed 15 Oct 2025 11:14:27 INFO valid result: 
recall@10: 0.0184    recall@20: 0.0270    ndcg@10: 0.0103    ndcg@20: 0.0125    
…
