…
Sun 12 Oct 2025 14:38:57 INFO 
====Testing====
microlens
The number of users: 98129
Average actions of users: 1.05971731088669
The number of items: 15709
Average actions of items: 6.619708447386849
The number of inters: 103989
The sparsity of the dataset: 99.99325407530151%
Sun 12 Oct 2025 14:39:07 INFO 

=================================


Sun 12 Oct 2025 14:39:07 INFO =========1/20: Parameters:['cl_loss', 'cl_loss2', 'alpha', 'beta', 'top_k', 'PI_loss', 'relabel_rate', 'knn_i', 'seed']=(0.01, 0.01, 1, 1, 25, 0.1, 0.03, 5, 999)=======
Sun 12 Oct 2025 14:39:20 INFO LoCroMI(
  (image_embedding): Embedding(17228, 1024)
  (text_embedding): Embedding(17228, 1024)
  (user_embedding): Embedding(98129, 64)
  (item_embedding): Embedding(17228, 64)
  (image_trs): Linear(in_features=1024, out_features=64, bias=True)
  (text_trs): Linear(in_features=1024, out_features=64, bias=True)
  (softmax): Softmax(dim=-1)
  (attention): Sequential(
    (0): Linear(in_features=64, out_features=64, bias=True)
    (1): Tanh()
    (2): Linear(in_features=64, out_features=1, bias=False)
  )
  (map_v): Sequential(
    (0): Linear(in_features=64, out_features=64, bias=True)
    (1): Sigmoid()
  )
  (map_t): Sequential(
    (0): Linear(in_features=64, out_features=64, bias=True)
    (1): Sigmoid()
  )
)
Trainable parameters: 42809536
Sun 12 Oct 2025 14:39:49 INFO epoch 0 training [time: 28.5058s, train loss: 213.0000]
Sun 12 Oct 2025 14:39:49 INFO set zero numbers: 0, F1: 0.010931956751356315
Sun 12 Oct 2025 14:40:15 INFO epoch 0 evaluating [time: 12.6793s, valid_score: 0.090000]
Sun 12 Oct 2025 14:40:15 INFO valid result: 
…
